…
d_feat : 6
hidden_size : 64
num_layers : 2
dropout : 0.1
dec_dropout : 0.0
n_epochs : 200
lr : 0.001
metric : ic
batch_size : 5000
early_stop : 20
optimizer : adam
base_model : GRU
model_path : None
gamma : 0.1
gamma_clip : 0.2
mu : 0.2
device : cuda:0
use_GPU : True
seed : None
[3684737:MainThread](2024-04-06 05:25:33,994) INFO - qlib.ADD - [pytorch_add.py:150] - model:
ADDModel(
  (enc_excess): GRU(6, 64, num_layers=2, batch_first=True, dropout=0.1)
  (enc_market): GRU(6, 64, num_layers=2, batch_first=True, dropout=0.1)
  (dec): Decoder(
    (rnn): GRU(6, 128, num_layers=2, batch_first=True)
    (fc): Linear(in_features=128, out_features=6, bias=True)
  )
  (pred_excess): Sequential(
    (0): Linear(in_features=128, out_features=128, bias=True)
    (1): BatchNorm1d(128, eps=1e-05, momentum=0.1, affine=True, track_running_stats=True)
    (2): Tanh()
    (3): Linear(in_features=128, out_features=1, bias=True)
  )
  (adv_excess): Sequential(
    (0): Linear(in_features=128, out_features=128, bias=True)
    (1): BatchNorm1d(128, eps=1e-05, momentum=0.1, affine=True, track_running_stats=True)
    (2): Tanh()
    (3): Linear(in_features=128, out_features=1, bias=True)
  )
  (adv_market): Sequential(
    (0): Linear(in_features=128, out_features=128, bias=True)
    (1): BatchNorm1d(128, eps=1e-05, momentum=0.1, affine=True, track_running_stats=True)
    (2): Tanh()
    (3): Linear(in_features=128, out_features=3, bias=True)
  )
  (pred_market): Sequential(
    (0): Linear(in_features=128, out_features=128, bias=True)
    (1): BatchNorm1d(128, eps=1e-05, momentum=0.1, affine=True, track_running_stats=True)
    (2): Tanh()
    (3): Linear(in_features=128, out_features=3, bias=True)
  )
  (before_adv_market): RevGrad()
  (before_adv_excess): RevGrad()
)
[3684737:MainThread](2024-04-06 05:25:33,994) INFO - qlib.ADD - [pytorch_add.py:151] - model size: 0.2839 MB
ModuleNotFoundError. CatBoostModel are skipped. (optional: maybe installing CatBoostModel can fix it.)
[3684737:MainThread](2024-04-06 05:27:10,736) INFO - qlib.timer - [log.py:127] - Time cost: 89.390s | Loading data Done
…
